ei-object-dclassification-object-detection-tensorflow-lite-float32-model.lite (tflite, 85236 bytes, 42 tensors)

head/bias f4 [32]
0.009228114 -0.004446985 0.005007929 -0.015912931 0.006831336 -0.02046951 0.079400465 0.010454561
-0.018008197 0.010320612 -0.013278165 -0.01226183 -0.005879871 -0.005504248 0.009723861 -0.008345878
0.00772649 -0.0035658327 0.010317164 -0.009600539 -0.020936552 -0.004535039 0.014845547 0.010984277
-0.0011649004 0.004987428 0.008855569 0.010487711 -0.0076091294 -0.0033789938 -0.0019912375 -0.010928982
00000000: 8431 173c 04b8 91bb 8e19 a43b d65b 82bc
00000010: 66d9 df3b adaf a7bc b69c a23d 9b49 2b3c
00000020: ed85 93bc c917 293c a98c 59bc d8e5 48bc
00000030: efab c0bb fb5c b4bb d450 1f3c 26bd 08bc
00000040: 7f2e fd3b bfb0 69bb 5209 293c 944b 1dbc
00000050: 2283 abbc aa9a 94bb bd3a 733c 66f7 333c
00000060: 92af 98ba 946d a33b f316 113c a6d4 2b3c
00000070: 0156 f9bb 1c72 5dbb 6c7f 02bb 790f 33bc

model_1/bn_Conv1/FusedBatchNormV3 f4 [16]
-1.4068205 5.321411 -21.706665 -0.6189697 2.393412 18.400448 2.14199 8.82553
2.8601859 0.529479 2.605433 6.141336 -1.2384405 3.469303 2.6841679 -0.13350634
00000000: b212 b4bf 0049 aa40 40a7 adc1 cc74 1ebf
00000010: aa2d 1940 1e34 9341 5d16 0940 5f35 0d41
00000020: 490d 3740 f08b 073f 6abf 2640 d385 c440
00000030: 3885 9ebf 0f09 5e40 68c9 2b40 e3b5 08be

model_1/expanded_conv_depthwise_BN/FusedBatchNormV3 f4 [16]
-0.30109996 2.6280777 4.012917 3.485097 1.8574941 3.3064241 5.1919384 3.8717525
-0.095807195 1.7364669 5.909128 10.078786 -0.32396248 7.098421 2.102798 -0.4164289
00000000: c629 9abe 6d32 2840 d169 8040 d40b 5f40
00000010: 5ec2 ed3f 749c 5340 5c24 a640 cbca 7740
00000020: 9036 c4bd 8c44 de3f 9417 bd40 b542 2141
00000030: 69de a5be 4426 e340 3e94 0640 2b36 d5be

model_1/block_1_expand_BN/FusedBatchNormV3 f4 [48]
2.096566 0.059733376 3.1811278 1.8848159 1.9925154 2.09944 3.8405557 -0.042792365
-0.025010947 -0.74826384 1.4416271 0.8681823 2.207459 -0.16218366 2.6342766 3.2904663
-0.13092306 -0.7253764 -0.18950754 3.8505678 1.0795894 -0.09186409 -0.008568506 0.65527236
3.7808545 -0.5674437 0.15397236 1.2274663 1.1270547 2.9394853 2.9487526 2.3779476
0.782277 3.2686765 0.13652526 -1.2059195 1.5551782 1.2865556 -0.38582304 3.4522915
2.8598006 2.2194421 -0.17955342 -0.89022386 5.00048 0.09189423 2.8022227 0.89770997
00000000: 232e 0640 fcaa 743d 9997 4b40 a641 f13f
00000010: bf0a ff3f 3a5d 0640 aacb 7540 0c47 2fbd
00000020: c2e3 ccbc 388e 3fbf 3d87 b83f 3241 5e3f
00000030: 0247 0d40 7913 26be fd97 2840 0097 5240
00000040: b210 06be 45b2 39bf 440e 42be b46f 7640
00000050: fc2f 8a3f 3d23 bcbd eb62 0cbc eebf 273f
00000060: 85f9 7140 fe43 11bf eeaa 1d3e 9e1d 9d3f
00000070: 5443 903f 8720 3c40 5db8 3c40 4b30 1840
00000080: 4e43 483f ff31 5140 47cd 0b3e 925b 9abf
00000090: 1410 c73f dbad a43f 998a c5be 58f2 5c40
000000a0: f906 3740 570b 0e40 dadc 37be b6e5 63bf
000000b0: ef03 a040 0b33 bc3d 9e57 3340 52d0 653f

model_1/block_1_depthwise_BN/FusedBatchNormV3 f4 [48]
5.8492074 3.9275274 9.610666 5.149464 0.02118927 2.6970074 0.39246476 1.6812034
2.2097514 0.79750836 1.4731398 0.19030124 -8.346265 -0.7051001 2.5129025 0.17718846
-0.56034213 0.66908765 0.23787752 0.30453038 -1.879297 0.14502907 5.8601584 1.1461709
-1.5905182 2.7866135 1.3165386 0.84287095 -0.7590711 0.85737205 -0.49430153 -9.698015
2.4201958 0.87932587 2.6028 0.35539907 0.82213885 0.032554507 4.5763073 -2.5265405
1.0986956 -5.5036554 0.37015215 0.97788036 -0.053287238 5.98163 0.20792189 -1.8693304
00000000: b52c bb40 9c5c 7b40 4ac5 1941 69c8 a440
00000010: 1f95 ad3c c59b 2c40 24f1 c83e ac31 d73f
00000020: 916c 0d40 8229 4c3f d88f bc3f 54de 423e
00000030: 4d8a 05c1 7181 34bf 65d3 2040 e470 353e
00000040: 9572 0fbf 5449 2b3f 2a96 733e 68eb 9b3e
00000050: ce8c f0bf 8082 143e 6b86 bb40 bab5 923f
00000060: 1a96 cbbf e057 3240 5684 a83f 64c6 573f
00000070: 7c52 42bf bc7c 5b3f 1715 fdbe 122b 1bc1
00000080: 7de4 1a40 801b 613f 4694 2640 def6 b53e
00000090: b177 523f e057 053d 1c71 9240 d7b2 21c0
000000a0: 0fa2 8c3f f21d b0c0 9584 bd3e 5e56 7a3f
000000b0: b843 5abd 8369 bf40 7ae9 543e 3846 efbf

model_1/block_2_expand_BN/FusedBatchNormV3 f4 [48]
4.3253655 2.2767053 1.5600547 3.239408 2.2376559 5.0315604 -1.928654 -0.30887857
0.5707081 1.3723171 2.24799 0.12985244 0.97791773 -0.46972278 0.41191962 -3.6282327
1.6098562 4.254405 -0.52485466 2.6939807 1.2023464 0.99476975 3.9936833 -0.51468486
1.2168877 1.1769346 4.0462523 3.6661763 -0.089427866 -2.6089323 0.047678962 0.84619814
-1.9897668 2.192989 1.0187271 1.8523605 3.6596258 1.3257707 2.3327763 4.5334578
-0.5864209 2.7410078 0.4587283 1.4701662 1.1903393 1.0932432 -1.1498638 2.6557841
00000000: 6569 8a40 8ab5 1140 dfaf c73f 7652 4f40
00000010: c135 0f40 8b02 a140 22de f6bf 5525 9ebe
00000020: ed19 123f 16a8 af3f 11df 0f40 0af8 043e
00000030: d158 7a3f 817f f0be 21e7 d23e f734 68c0
00000040: c50f ce3f 1624 8840 e05c 06bf 2e6a 2c40
00000050: 7de6 993f 3ba9 7e3f 8298 7f40 63c2 03bf
00000060: fac2 9b3f cba5 963f e67a 8140 a2a2 6a40
00000070: f525 b7bd bff8 26c0 044b 433d 71a0 583f
00000080: aeb0 febf ef59 0c40 a665 823f 261a ed3f
00000090: 4f37 6a40 dbb2 a93f 354c 1540 1612 9140
000000a0: ae1f 16bf ac6c 2f40 70de ea3e 682e bc3f
000000b0: 0a5d 983f 65ef 8b3f bd2e 93bf 5ef8 2940

model_1/block_2_depthwise_BN/FusedBatchNormV3 f4 [48]
-16.668352 -0.055896044 1.6792092 -0.066138536 0.8690851 -0.5062692 1.0905824 3.4785097
0.08237837 4.719518 -0.2106784 4.2368555 -1.909571 -0.23706596 2.4645514 1.5547513
0.14634633 4.059084 2.344578 1.9177817 -0.0001090914 -0.1079657 0.16517739 2.1714153
-1.1846192 3.7077336 28.69221 3.4544713 0.6731954 0.82025474 0.025545716 0.2879075
0.8873331 2.922669 -1.4262152 2.4542968 -4.4878826 2.4675872 -5.8853526 2.4217176
3.2123413 1.4030575 1.631307 -0.29251054 2.4001598 0.409014 0.2741953 -0.04257525
00000000: c958 85c1 40f3 64bd 54f0 d63f a473 87bd
00000010: 5c7c 5e3f dc9a 01bf 3498 8b3f e79f 5e40
00000020: feb5 a83d 4b06 9740 14bc 57be 5294 8740
00000030: d36c f4bf 6bc1 72be 36bb 1d40 1702 c73f
00000040: d0db 153e 04e4 8140 910d 1640 df79 f53f
00000050: 00c8 e4b8 1f1d ddbd 4324 293e 78f8 0a40
00000060: 9aa1 97bf 824b 6d40 a589 e541 0f16 5d40
00000070: 8956 2c3f 37fc 513f 4045 d13c 9d68 933e
00000080: 4328 633f 020d 3b40 388e b6bf 3313 1d40
00000090: bc9c 8fc0 f3ec 1d40 cf54 bcc0 6cfd 1a40
000000a0: 0097 4d40 6397 b33f abce d03f f1c3 95be
000000b0: 389c 1940 486a d13e 5463 8c3e 6363 2ebd

model_1/block_3_expand_BN/FusedBatchNormV3 f4 [48]
0.21582687 0.72025156 0.54730237 0.17615034 2.1804438 4.054805 1.1227809 -0.028974038
-0.28951707 -0.42440784 0.99762964 0.27169058 1.2397943 0.7715247 3.5999825 1.2452242
0.5261743 -0.39357865 -0.04306701 0.92055875 -0.58305794 2.5542378 3.700848 1.5793742
1.5631665 0.053092655 6.9250145 1.8679519 1.7478392 -0.24249277 2.6320825 1.1728349
0.36866698 -0.06756933 3.7084854 1.8443942 -1.3767256 0.11986691 -0.16976202 1.847715
0.15818053 -0.14595123 -0.31868646 -0.0049856957 1.9377565 1.402031 0.24647823 1.1764189
00000000: b801 5d3e 6862 383f 021c 0c3f c160 343e
00000010: 648c 0b40 f6c0 8140 49b7 8f3f f65a edbc
00000020: 953b 94be fc4b d9be a864 7f3f 071b 8b3e
00000030: 94b1 9e3f a582 453f 1d66 6640 8263 9f3f
00000040: 5cb3 063f 2483 c9be 0867 30bd bda9 6b3f
00000050: 4943 15bf a278 2340 b2da 6c40 ef28 ca3f
00000060: d715 c83f af77 593d b899 dd40 0c19 ef3f
00000070: 32b9 df3f 0650 78be 0a74 2840 741f 963f
00000080: ebc1 bc3e ca61 8abd d357 6d40 1c15 ec3f
00000090: 8b38 b0bf c87c f53d 18d6 2dbe ed81 ec3f
000000a0: 14fa 213e 3d74 15be df2a a3be 0c5f a3bb
000000b0: 6808 f83f c075 b33f ca64 7c3e e594 963f

model_1/block_3_depthwise_BN/FusedBatchNormV3 f4 [48]
0.4026214 1.3690647 -0.25101987 2.4065728 0.79493415 8.591219 -0.45921636 5.555241
0.33340675 1.1969037 1.2223954 0.2883774 -0.09654212 1.0722386 -0.18357623 -0.3136539
-0.05379985 -0.07068044 0.28055942 -0.2041875 0.07820347 -0.60567427 -0.043424368 -2.5207767
-0.5134682 4.143293 3.354838 6.9932184 0.11599603 0.63275313 -0.052326947 0.083758086
1.2626959 0.22431427 0.8394513 -0.7116842 5.7170377 0.41068792 5.5537705 0.15489781
0.16521013 5.981302 0.04742813 0.50470954 1.3339347 0.04509592 0.39722526 1.4175671
00000000: 6424 ce3e 833d af3f ad85 80be 4a05 1a40
00000010: ce80 4b3f a275 0941 681e ebbe 89c4 b140
00000020: 4ab4 aa3e 2434 993f 7477 9c3f 34a6 933e
00000030: e0b7 c5bd 1d3f 893f 68fb 3bbe 3e97 a0be
00000040: 3b5d 5cbd e8c0 90bd 7ca5 8f3e 8716 51be
00000050: 2429 a03d 780d 1bbf c0dd 31bd 6854 21c0
00000060: a772 03bf db95 8440 aab5 5640 72c8 df40
00000070: 548f ed3d 1cfc 213f c854 56bd 5c89 ab3d
00000080: 05a0 a13f a4b2 653e 48e6 563f f030 36bf
00000090: f9f1 b640 b045 d23e 7db8 b140 889d 1e3e
000000a0: d82c 293e d366 bf40 0044 423d a534 013f
000000b0: 5fbe aa3f 80b6 383d 1c61 cb3e d772 b53f

model_1/block_4_expand_BN/FusedBatchNormV3 f4 [96]
2.5881078 0.3611093 1.3713396 -0.5265774 1.573466 0.91349214 3.1215363 3.5054755
-0.43004847 1.8260016 1.4248189 0.80948085 2.7801943 4.8169236 -0.09756811 -0.67243516
2.212492 2.3539333 0.41485983 -0.12966084 -0.26012734 2.475761 1.5476185 0.7689221
1.7911426 2.0515237 1.448181 0.9131902 0.0073037203 -0.011206361 1.4385669 1.8820177
1.9393826 1.079621 1.6606596 -0.25440547 2.268365 2.6080558 0.44329926 0.9279959
0.5204853 1.8840281 2.1705446 0.73743564 1.0839405 3.2562327 2.8554533 1.467258
1.5859106 0.86814135 0.13331735 -0.6546834 2.661272 1.5836996 2.2844348 1.8979949
-0.109092936 1.734164 0.75110215 1.6607852 1.7101763 1.3724611 1.0445936 2.7531357
1.067779 1.133093 1.9779462 -0.352572 2.6733415 1.1818832 1.9500018 -0.4499892
-0.40696302 1.3003056 0.42711622 1.2859334 2.3677623 4.4958444 1.6594872 -1.2304752
1.0401034 -2.0462427 -0.46473584 0.23610798 1.5661737 1.5896344 1.6573323 1.3728435
1.6168476 1.5879216 1.3927143 1.7025313 2.0957246 2.7376115 -2.9264417 3.2827296
00000000: 8fa3 2540 51e3 b83e 0e88 af3f c7cd 06bf
00000010: 5567 c93f 9fda 693f 40c7 4740 b659 6040
00000020: 502f dcbe 6cba e93f 7760 b63f 233a 4f3f
00000030: b4ee 3140 3d24 9a40 cad1 c7bd b624 2cbf
00000040: 7899 0d40 d8a6 1640 8268 d43e d0c5 04be
00000050: 692f 85be de72 1e40 5d18 c63f 14d8 443f
00000060: 2944 e53f 2a4c 0340 ff5d b93f d5c6 693f
00000070: 0c54 ef3b e39a 37bc f622 b83f f5e5 f03f
00000080: b03d f83f 0531 8a3f 7e90 d43f 6f41 82be
00000090: e42c 1140 63ea 2640 1ff8 e23e 2491 6d3f
000000a0: 863e 053f d527 f13f 34ea 0a40 95c8 3c3f
000000b0: 90be 8a3f 1e66 5040 bfbf 3640 1ccf bb3f
000000c0: 1eff ca3f 833e 5e3f 5884 083e 5599 27bf
000000d0: 4852 2a40 abb6 ca3f 2e34 1240 7ff1 f23f
000000e0: 1e6c dfbd 16f9 dd3f 3b48 403f 9c94 d43f
000000f0: 0fe7 da3f ceac af3f 3eb5 853f 6033 3040
00000100: fbac 883f 3109 913f 572d fd3f 5184 b4be
00000110: 0718 2b40 f347 973f a999 f93f fc64 e6be
00000120: 755d d0be 6a70 a63f faae da3e 7799 a43f
00000130: 6b89 1740 f5dd 8f40 146a d43f 3680 9dbf
00000140: 1c22 853f a4f5 02c0 dbf1 edbe 4ac6 713e
00000150: 6178 c83f 2479 cb3f 7723 d43f 56b9 af3f
00000160: ddf4 ce3f 0441 cb3f 7644 b23f 8cec d93f
00000170: 5a20 0640 0735 2f40 d24a 3bc0 3e18 5240

model_1/block_4_depthwise_BN/FusedBatchNormV3 f4 [96]
1.8065388 -0.91971123 0.96243334 2.1307988 -0.30917495 -0.86747915 -3.1626945 0.19304818
-0.35695893 0.64199907 0.6449016 -0.52183074 0.13768151 -2.6725612 1.0902684 -0.82727104
-0.19965789 5.2257147 1.4916595 0.48190367 0.13789022 -0.29554012 0.08885925 -0.11795926
3.5813453 -0.27457565 -0.237912 -0.5357793 -0.5565468 -0.78638893 0.872511 -1.6996235
-0.021913014 -0.06827003 -0.37891418 2.3240561 0.25666887 -0.4539273 0.9735638 0.13408875
0.20097646 0.6557211 -3.646295 -1.320686 -1.4589038 3.4000893 -0.035107464 3.4567497
2.7142925 -2.2774496 0.0011252463 1.254931 1.711223 -0.08355275 -1.3461183 1.3686808
-4.084611 0.346501 0.20645994 -0.51016444 -0.27270126 -0.17155853 -3.7778878 -0.17265682
0.32338035 2.963163 2.7253435 1.7953007 -4.482174 -0.042743526 -1.8604037 -0.1540985
5.847285 1.1869148 -0.03491039 0.10355255 9.39934 1.654069 0.23572198 -1.7224252
-0.34203485 -2.0680697 0.078692734 -0.4459222 0.0037800279 0.046425402 0.23608403 -0.11128917
0.23124461 -0.3710659 0.19591475 -0.08962671 0.099828884 0.16235614 1.2174093 3.8640769
00000000: aa3c e73f 3272 6bbf 0862 763f 025f 0840
00000010: 2e4c 9ebe 1d13 5ebf 9669 4ac0 6cae 453e
00000020: 52c3 b6be 0d5a 243f 4518 253f b396 05bf
00000030: 62fc 0c3e 3e0b 2bc0 ea8d 8b3f 09c8 53bf
00000040: 1e73 4cbe 0e39 a740 b3ee be3f 14bc f63e
00000050: 1833 0d3e 0951 97be d7fb b53d a094 f1bd
00000060: c334 6540 2e95 8cbe 349f 73be d528 09bf
00000070: da79 0ebf c950 49bf e25c 5f3f 438d d9bf
00000080: ec82 b3bc 28d1 8bbd 0a01 c2be 56bd 1440
00000090: 1a6a 833e 2969 e8be 7a3b 793f 904e 093e
000000a0: c6cc 4d3e 57dd 273f e65c 69c0 3d0c a9bf
000000b0: 5cbd babf 109b 5940 d8cc 0fbd 633b 5d40
000000c0: f8b6 2d40 bcc1 11c0 007d 933a 94a1 a03f
000000d0: 5b09 db3f b41d abbd 9b4d acbf ef30 af3f
000000e0: 22b5 82c0 9468 b13e 3c6a 533e 239a 02bf
000000f0: 809f 8bbe 0aad 2fbe eac8 71c0 f3cc 30be
00000100: 1c92 a53e 76a4 3d40 076c 2e40 6acc e53f
00000110: f86d 8fc0 d613 2fbd b521 eebf ffcb 1dbe
00000120: f51c bb40 d3ec 973f 32fe 0ebd 5c13 d43d
00000130: b263 1641 88b8 d33f 1a61 713e 6e78 dcbf
00000140: 311f afbe 415b 04c0 a829 a13d ea4f e4be
00000150: 58ba 773b 9028 3e3d 03c0 713e 94eb e3bd
00000160: 63cb 6c3e 5afc bdbe e09d 483e 358e b7bd
00000170: 1673 cc3d b040 263e 11d4 9b3f 094d 7740

model_1/block_5_expand_BN/FusedBatchNormV3 f4 [96]
0.3849381 1.5065639 1.8588772 2.3287804 2.9655938 -1.0162367 -0.7994081 1.6272986
2.3644593 -1.3661956 2.667091 0.87525886 1.2842612 2.3256395 2.3824325 0.5959093
0.4287809 1.2506331 2.1893911 1.1871591 -0.07904902 0.2146263 1.986737 -0.62935394
2.586812 -0.011310982 2.2356813 1.4215496 1.6248014 3.484143 2.8201008 2.4843426
1.6672773 -0.24912338 1.9880271 0.6233754 0.50333023 1.4517405 2.678888 -0.584174
1.8837563 1.57956 2.7031393 -1.0366058 3.2523463 1.5621457 1.7274504 2.7043688
4.102096 2.1061134 -0.12748736 1.7031127 -1.0793846 -0.03203608 -1.0144137 1.0752844
-0.11506486 1.9012277 2.0550072 1.466815 1.6160384 1.4115949 1.4288913 1.0059084
2.4491076 1.928495 1.2893196 -1.3240399 1.6605669 -0.6991018 1.1234325 1.5708556
2.118493 1.039511 -1.514338 -1.3645517 1.6240271 0.10046212 0.7333557 -0.38211814
2.0777307 1.6508684 0.88433224 1.9239595 1.1076517 0.020087803 2.357145 3.8576431
1.4293853 2.2619271 1.2651224 -0.08591775 1.4513521 1.5969027 1.124326 1.7049297
00000000: 9b16 c53e 16d7 c03f b0ef ed3f bd0a 1540
00000010: 4acc 3d40 0b14 82bf 02a6 4cbf 524b d03f
00000020: 4d53 1740 7fdf aebf 9eb1 2a40 f710 603f
00000030: ac62 a43f 47d7 1440 c679 1840 838d 183f
00000040: 2c89 db3e bf14 a03f fc1e 0c40 d4f4 973f
00000050: 74e4 a1bd ffc6 5b3e 664d fe3f 571d 21bf
00000060: 548e 2540 b251 39bc 6715 0f40 56f5 b53f
00000070: 7ef9 cf3f 33fc 5e40 887c 3440 78ff 1e40
00000080: 5869 d53f 331a 7fbe ac77 fe3f 8895 1f3f
00000090: 40da 003f a2d2 b93f e772 2b40 6d8c 15bf
000000a0: ed1e f13f 062f ca3f 3c00 2d40 80af 84bf
000000b0: 7126 5040 64f4 c73f 181d dd3f 6114 2d40
000000c0: 5f44 8340 90ca 0640 0c8c 02be 99ff d93f
000000d0: 4629 8abf 4438 03bd 4fd8 81bf eba2 893f
000000e0: 20a7 ebbd 6e5b f33f 3d85 0340 98c0 bb3f
000000f0: 59da ce3f 24af b43f e9e5 b63f 9bc1 803f
00000100: 2ebe 1c40 edd8 f63f 6d08 a53f 247a a9bf
00000110: 758d d43f 56f8 32bf a3cc 8f3f cc11 c93f
00000120: 6495 0740 b20e 853f d4d5 c1bf a1a9 aebf
00000130: 1fe0 cf3f 15bf cd3d 33bd 3b3f fda4 c3be
00000140: 8af9 0440 a84f d33f 9963 623f 4e44 f63f
00000150: 88c7 8d3f 2d8f a43c 77db 1640 a0e3 7640
00000160: 19f6 b63f 6ac3 1040 88ef a13f a5f5 afbd
00000170: e8c5 b93f 4f67 cc3f eae9 8f3f 233b da3f

model_1/block_5_depthwise_BN/FusedBatchNormV3 f4 [96]
2.3237884 5.6215115 -0.15216513 -0.19831143 3.4824474 -0.8909706 0.055802867 -0.034280404
1.1905909 2.4464889 -1.4190997 -0.030272007 0.15790874 1.2888277 1.6918143 -1.687361
-0.75750196 -0.024786618 -0.17117795 1.1551477 -0.93529093 0.54868156 -0.43730745 0.7115934
1.6376722 -0.033236206 -0.87728775 3.2754655 1.1112645 -10.363 0.5395148 5.700327
2.9636328 -1.7588081 0.21891525 0.71260476 -0.09824109 -0.11258429 1.0674553 -0.8050531
-1.1125313 -0.1820263 -2.8236785 -0.022298887 12.444105 0.009277433 1.4192652 -0.50855947
-10.24809 0.25525707 0.021693744 0.039147172 -0.5214238 2.848304 -0.8471811 1.7554142
2.7683585 0.018030673 1.5832915 -0.12615913 -2.867474 -0.251667 0.10017818 -0.04666262
-0.31264555 1.7972184 0.43352592 -2.1550848 -0.6339699 0.42329758 0.14214754 -0.4538548
0.4084013 -0.018829033 -0.725048 -1.8170512 -0.07126027 -0.10080385 2.597914 -1.2709724
-1.2107633 -2.7583163 -0.040027335 -0.107534125 3.5157964 -1.4826458 -0.6735232 -13.535377
-1.8077703 1.1821147 -1.132516 0.98516154 -0.0855977 -0.2521873 -1.0579901 0.25744942
00000000: f3b8 1440 6ce3 b340 2dd1 1bbe 2712 4bbe
00000010: 6be0 5e40 a616 64bf 8c91 643d 9c69 0cbd
00000020: 4865 983f 4693 1c40 0fa5 b5bf 00fd f7bc
00000030: d4b2 213e 4ef8 a43f 5f8d d83f 72fb d7bf
00000040: a6eb 41bf 4e0d cbbc 4649 2fbe e1db 933f
00000050: 3a6f 6fbf 6576 0c3f c3e6 dfbe fc2a 363f
00000060: 3e9f d13f b022 08bd ee95 60bf 3aa1 5140
00000070: ea3d 8e3f d9ce 25c1 a41d 0a3f 1469 b640
00000080: 29ac 3d40 a020 e1bf 522b 603e 446d 363f
00000090: a032 c9bd 9892 e6bd 60a2 883f f617 4ebf
000000a0: 6d67 8ebf 1a65 3abe 26b7 34c0 28ac b6bc
000000b0: 0e1b 4741 6000 183c 7baa b53f f430 02bf
000000c0: 2df8 23c1 0eb1 823e 14b7 b13c c958 203d
000000d0: 087c 05bf 9d4a 3640 dce0 58bf 6ab1 e03f
000000e0: c92c 3140 10b5 933c 4ca9 ca3f dc2f 01be
000000f0: b284 37c0 7fda 80be 382a cd3d 4e21 3fbd
00000100: 1413 a0be 410b e63f 1cf7 dd3e e9ec 09c0
00000110: da4b 22bf 76ba d83e 208f 113e a85f e8be
00000120: fa19 d13e 583f 9abc bf9c 39bf 2295 e8bf
00000130: e8f0 91bd 4072 cebd 3944 2640 39af a2bf
00000140: 4bfa 9abf 4188 30c0 b4f3 23bd da3a dcbd
00000150: cf02 6140 56c7 bdbf 046c 2cbf e790 58c1
00000160: 0465 e7bf 894f 973f 49f6 90bf 8c33 7c3f
00000170: d94d afbd b21e 81be 386c 87bf 69d0 833e

model_1/block_6_expand_BN/FusedBatchNormV3 f4 [96]
-0.61304325 1.5855516 2.4022973 0.9088997 -1.0810757 -1.4976672 3.333689 0.72674245
0.59969103 -0.63539535 1.9644607 -0.035235506 -2.5429723 2.8505623 3.08084 1.16881
1.8827504 1.4363292 -1.9610399 -1.7185488 0.615507 2.7318432 3.0764575 1.6859508
0.17929068 0.46303147 2.9911313 1.0923827 0.53202266 -1.9665983 1.4564086 -0.74037504
-0.083736524 1.1315695 0.027260443 0.24183232 1.9032202 1.0849236 -0.6306467 1.7661761
1.2842005 2.6104112 1.5142622 2.3164127 1.9008003 0.9937242 0.52313626 2.163235
1.3486458 -1.3118831 -1.5503287 0.090274915 -0.15776594 -0.29179895 0.77337354 0.004181371
0.09729342 -0.2526217 -1.5618558 1.8438797 -0.74283266 0.65053433 -0.28761083 -0.7739288
-1.8505996 1.8978282 2.15917 0.40457672 -1.1459067 0.3336838 0.42692572 0.52148676
1.3628564 -0.41572726 0.166412 2.1562335 -0.16096534 1.8647481 1.8101718 -0.10966855
1.4635946 0.3051715 -0.08719832 0.2396585 1.8105102 2.3880556 2.365032 0.28512344
0.70938 2.0418956 -0.083705924 -1.9639299 0.2090745 -1.0404207 -0.61879075 -0.41096893
00000000: 67f0 1cbf 5bf3 ca3f 3dbf 1940 a7ad 683f
00000010: b060 8abf 8fb3 bfbf 295b 5540 cb0b 3a3f
00000020: 5a85 193f 45a9 22bf 7373 fb3f 1b53 10bd
00000030: 0fc0 22c0 9d6f 3640 7c2c 4540 919b 953f
00000040: f7fd f03f a3d9 b73f 5b03 fbbf 68f9 dbbf
00000050: de91 1d3f 85d6 2e40 aee4 4440 3ccd d73f
00000060: fa97 373e 7612 ed3e b26e 3f40 32d3 8b3f
00000070: a332 083f 7eb9 fbbf 996b ba3f 3889 3dbf
00000080: 0e7e abbd 45d7 903f 4b51 df3c e4a2 773e
00000090: b89c f33f c7de 8a3f 1072 21bf 0f12 e23f
000000a0: af60 a43f fa10 2740 58d3 c13f 1b40 1440
000000b0: 6d4d f33f b664 7e3f 42ec 053f 7172 0a40
000000c0: 6da0 ac3f c9eb a7bf 2c71 c6bf 0ee2 b83d
000000d0: 658d 21be ac66 95be cffb 453f e203 893b
000000e0: c641 c73d a257 81be e4ea c7bf 4004 ec3f
000000f0: 482a 3ebf 6b89 263f ba41 93be 3320 46bf
00000100: 73e0 ecbf 09ec f23f d72f 0a40 ae24 cf3e
00000110: 12ad 92bf 9ad8 aa3e 0296 da3e 2880 053f
00000120: 1472 ae3f 34da d4be e867 2a3e bbff 0940
00000130: 19d4 24be 11b0 ee3f b6b3 e73f e899 e0bd
00000140: 1157 bb3f 703f 9c3e 0895 b2bd 0a69 753e
00000150: ccbe e73f e7d5 1840 af5c 1740 b3fb 913e
00000160: ed99 353f 6bae 0240 036e abbd 0e62 fbbf
00000170: a017 563e 812c 85bf 1269 1ebf 856a d2be

model_1/Conv1/Conv2D f4 [16, 3, 3, 3]
4.874726e-20 3.7147712e-20 2.2560115e-20 1.8998145e-20 9.998501e-21 2.4239876e-21 1.4501874e-20 1.3855346e-20
8.963957e-21 3.8636524e-20 2.4191955e-20 1.3960823e-20 2.0533142e-20 1.3445755e-20 2.9473942e-21 2.0706168e-20
1.8024154e-20 1.7330613e-20 3.1181633e-20 1.1348583e-21 -8.679305e-21 1.1872148e-20 -1.0257334e-20 -2.2796316e-20
1.7555312e-20 6.222834e-21 2.9108964e-21 2.7813509 -0.024111688 1.966595 -0.1716913 -1.1609972
1.1727407 -7.1971593 -6.899082 -3.5038488 0.11889859 -0.30164167 0.16640556 -1.3675588
-0.074971996 -0.056943122 -0.2625473 -2.2053275 0.53763145 -0.31657735 0.85796475 0.142172
-0.5130123 0.111573435 0.061965235 1.8849066 -1.4176866 0.93029404 2.1429293 -0.34051245
-0.4601152 5.07106 6.8538404 -0.004091446 2.3549871 -2.3534045 0.35237974 0.8921596
0.6851707 -0.15960659 4.611143 7.55887 -1.6986666 1.1505973 -0.35712528 -0.46710056
2.8187244 -4.004576 1.0515782 4.3362 -2.664212 -1.3653554 1.833149 -3.3508515
0.71632284 0.07489478 0.45949712 0.07567185 0.39632022 1.2032768 0.23661646 0.010763754
0.057722487 -0.08117435 0.29373437 0.5249132 0.10337023 0.90560067 1.655233 0.29716185
-0.17160441 -0.25280774 0.023979852 0.105897725 0.069024935 0.05267063 0.4204355 0.41467375
0.08896518 0.008532415 -0.042122837 0.026518876 0.1474095 0.2862901 -0.07749173 0.07926981
0.34886622 -0.08765076 -0.027565561 0.07102614 -0.021066533 0.14563589 0.3297662 0.14571914
0.14332315 0.48804924 0.06347326 0.14458139 0.2265676 -0.08542243 0.22675791 0.30917716
0.08203859 0.20636328 0.49445885 -0.017827434 -0.0588754 0.112986006 0.048726033 0.35368884
-0.14112996 -8.634525 -0.4876769 -0.18157262 -7.2262244 -0.6631878 1.8775835 -1.8707849
0.07295532 -3.5272262 -9.836255 -0.37597466 -3.7291698 -9.182261 -0.3520394 0.6839302
-1.7987503 -0.323264 0.47523624 -1.0858567 0.011993745 -0.33707923 -0.7223964 -0.015127772
0.87345636 -0.721053 0.8355464 -1.6754702 1.096304 1.4433538 -2.3919098 1.2403091
0.36221108 -0.47309542 0.35717183 1.167883 -2.6174142 1.8750132 1.9167478 -3.5306165
2.1485198 0.31176013 -0.69631463 0.5900659 0.6114729 -0.9428296 0.4274177 0.4416014
-1.2047787 0.79835707 -0.28489 0.29753363 0.061852995 -2.3232057 1.4422224 0.30019027
-9.1133585 -3.5719383 -0.077201515 -1.7130542 2.0680685 0.07291603 -0.55201524 -0.6221817
0.035904054 -10.958249 -8.254244 -0.74725246 -0.59708965 -0.6397986 0.355351 -1.4229797
2.8132079 -0.7583771 -1.1203454 0.6551383 -0.1514492 -1.961353 1.9305826 -0.30503356
-0.03136955 -0.095336 -0.27191257 -0.04260676 -0.105942346 -0.27073154 -0.09210914 -0.14940393
-0.27056038 -0.027636433 -0.09571755 -0.2709549 -0.042141374 -0.10804358 -0.2682633 -0.09315008
-0.15155528 -0.26615468 -0.07256958 -0.14108245 -0.28124404 -0.08392088 -0.14949143 -0.2765565
-0.123485975 -0.18525209 -0.2693622 -0.28035113 -0.022089653 0.08064494 -0.15247624 -0.060704805
-0.05303623 0.039313562 0.025298746 -0.21003614 1.607108 1.8807958 -0.19421744 1.2446254
00000000: d233 661f d46c 2f1f 0313 d51e b26e b31e
00000010: c9dd 3c1e bd26 371d 61f7 881e 2cdc 821e
00000020: 0953 291e b174 361f 8f7c e41e 33db 831e
00000030: 17ee c11e aefb 7d1e e5b2 5e1d 7190 c31e
00000040: bb3b aa1e daae a31e 4840 131f b47e ab1c
00000050: 8bf2 239e 2f42 601e 6cc1 419e 1c4e d79e
00000060: 24ce a51e 8f17 eb1d edf0 5b1d a701 3240
00000070: e085 c5bc 63b9 fb3f d8cf 2fbe 8e9b 94bf
00000080: 5e1c 963f 214f e6c0 48c5 dcc0 0f3f 60c0
00000090: 1b81 f33d c770 9abe 3866 2a3e 2b0c afbf
000000a0: eb8a 99bd 313d 69bd 9a6c 86be 1624 0dc0
000000b0: 37a2 093f 6d16 a2be 94a3 5b3f 8995 113e
000000c0: c654 03bf 9d80 e43d 42cf 7d3d 9f44 f13f
000000d0: c176 b5bf c027 6e3f c125 0940 a657 aebe
000000e0: 3894 ebbe 2046 a240 a952 db40 8911 86bb
000000f0: 1cb8 1640 2e9e 16c0 1e6b b43e 9264 643f
00000100: 5967 2f3f e96f 23be 7c8e 9340 43e2 f140
00000110: e86d d9bf c646 933f 20d9 b6be ce27 efbe
00000120: fb65 3440 7d25 80c0 1d9a 863f 27c2 8a40
00000130: 7382 2ac0 f7c3 aebf a0a4 ea3f 5a74 56c0
00000140: ef60 373f 6f62 993d 3543 eb3e d8f9 9a3d
00000150: 7cea ca3e f904 9a3f 964b 723e 755a 303c
00000160: 6a6e 6c3d bd3e a6bd 5a64 963e b660 063f
00000170: c5b3 d33d 72d5 673f adde d33f 9925 983e
00000180: 11b9 2fbe 0470 81be 6571 c43c e8e0 d83d
00000190: f25c 8d3d 29bd 573d 5243 d73e 1e50 d43e
000001a0: 6033 b63d 8bcb 0b3c ff88 2cbd 1d3e d93c
000001b0: 84f2 163e 9e94 923e fcb3 9ebd 3658 a23d
000001c0: 989e b23e 3e82 b3bd 2cd1 e1bc 2776 913d
000001d0: b993 acbc 9321 153e 1ed7 a83e 6637 153e
000001e0: 4ec3 123e 97e1 f93e 45fe 813d 250d 143e
000001f0: 5601 683e f4f1 aebd 3a33 683e 784c 9e3e
00000200: d903 a83d e550 533e b629 fd3e d70a 92bc
00000210: 5527 71bd 3565 e73d f394 473d b416 b53e
00000220: 5f84 10be 0427 0ac1 c9b0 f9be 2cee 39be
00000230: 3b3d e7c0 adc6 29bf a854 f03f e175 efbf
00000240: 9969 953d 13be 61c0 4d61 1dc1 c07f c0be
00000250: b8aa 6ec0 8bea 12c1 823e b4be 0d16 2f3f
00000260: 733d e6bf dc82 a5be 2a52 f33e 5afd 8abf
00000270: 6a81 443c a695 acbe f8ee 38bf 7ada 77bc
00000280: d69a 5f3f ee96 38bf 5ee6 553f cf75 d6bf
00000290: b153 8c3f d1bf b83f 0d15 19c0 73c2 9e3f
000002a0: bb73 b93e 9039 f2be 3adf b63e 317d 953f
000002b0: b783 27c0 6f00 f03f fe57 f53f 9ff5 61c0
000002c0: 5981 0940 069f 9f3e ad41 32bf 8f0e 173f
000002d0: 7d89 1c3f 485d 71bf 7ed6 da3e 9419 e23e
000002e0: 3036 9abf 2161 4c3f 1add 91be 5456 983e
000002f0: 9159 7d3d 67af 14c0 be9a b83f 8ab2 993e
00000300: 51d0 11c1 a39a 64c0 d41b 9ebd 5c45 dbbf
00000310: 3c5b 0440 0055 953d df50 0dbf 4d47 1fbf
00000320: 2110 133d fd54 2fc1 6211 04c1 f04b 3fbf
00000330: deda 18bf d7c9 23bf 91f0 b53e 3324 b6bf
00000340: 990b 3440 0025 42bf 7a67 8fbf 25b7 273f
00000350: 8015 1bbe 9d0d fbbf 551d f73f 5c2d 9cbe
00000360: 5b7d 00bd 853f c3bd 2038 8bbe 6d84 2ebd
00000370: 4df8 d8bd 539d 8abe b7a3 bcbd 58fd 18be
00000380: e486 8abe cd65 e2bc 9007 c4bd 9aba 8abe
00000390: 6f9c 2cbd f445 ddbd cf59 89be 78c5 bebd
000003a0: 4f31 1bbe 6d45 88be 5c9f 94bd eb77 10be
000003b0: 38ff 8fbe b6de abbd 4814 19be d098 8dbe
000003c0: 37e6 fcbd b9b2 3dbe d8e9 89be 2f8a 8fbe
000003d0: 5cf5 b4bc 2d29 a53d bb22 1cbe 9aa5 78bd
000003e0: 853c 59bd 4207 213d 513f cf3c b713 57be
000003f0: b7b5 cd3f ebbd f03f f0e0 46be e34f 9f3f

model_1/expanded_conv_project/Conv2D f4 [8, 1, 1, 16]
-1.3779506e-20 -1.9629428 0.28249073 0.09417162 11.89297 -0.034291 -0.043555237 0.055944525
-0.30615714 -11.897833 -8.803315 -0.5502077 1.2429032e-20 11.541154 -0.3249198 2.5011682e-20
1.0658267e-20 -2.8032086 0.0411442 8.124617 6.6699 1.2640297 2.0248423 0.81125873
0.060204975 -0.59385914 11.73483 -4.256186 2.2746021e-20 2.7752073 -1.5615604 -1.4954823e-19
3.3019754e-21 -0.05406417 -0.42448074 -1.280333 -5.6691775 0.2773691 1.1379241 0.2215679
0.26030278 0.29095182 -1.5339618 0.0881883 8.734479e-21 12.067503 -0.8899314 -3.5388394e-21
-9.70626e-21 -0.53163093 -1.0091474 -6.8289723 4.4884076 1.4007 3.4392462 0.93426764
-0.21921347 3.259225 0.044555675 2.1850266 -7.296043e-21 -0.13898213 1.2547896 -2.8741424e-20
-6.4042157e-22 2.474558 -1.4292171 1.6990154 -2.9567537 1.8965664 7.0748186 0.5612108
0.23329397 -3.182525 1.0052966 -0.7421198 -1.444096e-20 -0.17520188 0.749035 2.9191517e-20
-6.684673e-21 -1.5279683 -0.89752287 -0.14368846 -2.153631 -2.007097 -1.4391174 1.5318997
0.07753642 0.83404195 -0.2558576 -4.3529477 -2.158434e-20 -0.43375605 11.973825 -1.1880919e-19
-1.0519028e-20 1.5786396 0.14607725 0.08843185 3.721986 -1.2574502 -2.0089355 -0.47105202
0.2831382 -8.307211 8.628412 4.53929 6.6459277e-21 10.080388 4.750128 4.2747146e-20
4.423249e-21 0.58673555 -0.54506063 5.65091 0.21850112 -0.07219267 0.5058888 0.48525557
-0.2844811 3.0510447 -2.387026 3.3548982 3.2286045e-21 -0.26957437 2.3019898 -3.155059e-20
00000000: cd24 829e b641 fbbf a0a2 903e 0ddd c03d
00000010: 9b49 3e41 b874 0cbd fa66 32bd 1626 653d
00000020: a1c0 9cbe 865d 3ec1 61da 0cc1 69da 0cbf
00000030: 1cc7 6a1e 91a8 3841 e35b a6be 893a ec1e
00000040: 3754 491e c567 33c0 d286 283d 6efe 0141
00000050: d26f d540 bacb a13f 0497 0140 a7ae 4f3f
00000060: 7e99 763d 2707 18bf ddc1 3b41 ad32 88c0
00000070: 81d4 d61e ff9c 3140 36e1 c7bf 2e8e 30a0
00000080: 7e7d 791d 6472 5dbd 8a55 d9be f4e1 a3bf
00000090: e769 b5c0 5303 8e3e 7fa7 913f b2e2 623e
000000a0: 6846 853e a3f7 943e dc58 c4bf 119c b43d
000000b0: 59fd 241e 7e14 4141 8bd2 63bf 8eb1 859d
000000c0: 9858 379e f718 08bf be2b 81bf f186 dac0
000000d0: 09a1 8f40 234a b33f 9c1c 5c40 2a2c 6f3f
000000e0: 7f79 60be 2497 5040 0380 363d 7ad7 0b40
000000f0: 80d1 099e 5551 0ebe f29c a03f 40ba 079f
00000100: 388e 419c 295f 1e40 96f0 b6bf 5679 d93f
00000110: 743b 3dc0 b0c2 f23f ea64 e240 83ab 0f3f
00000120: 9de4 6e3e 7dae 4bc0 8fad 803f 90fb 3dbf
00000130: 1964 889e 1f68 33be c2c0 3f3f 61da 091f
00000140: 318a fc9d 7794 c3bf 0fc4 65bf 1123 13be
00000150: 17d5 09c0 4774 00c0 0035 b8bf 4a15 c43f
00000160: 6acb 9e3d c683 553f c4ff 82be 594b 8bc0
00000170: bbdb cb9e 4615 debe ca94 3f41 e043 0ca0
00000180: e6b2 469e dd10 ca3f 4695 153e c21b b53d
00000190: 0535 6e40 21f4 a0bf 6692 00c0 bb2d f1be
000001a0: 7df7 903e 56ea 04c1 fa0d 0a41 dd41 9140
000001b0: 7813 fb1d 4549 2141 0c01 9840 21de 491f
000001c0: 0a1b a71d 4d34 163f 1889 0bbf 41d4 b440
000001d0: c2be 5f3e c0d9 93bd ee81 013f 6b73 f83e
000001e0: 82a7 91be 5144 4340 09c5 18c0 a7b6 5640
000001f0: 4bf2 731d a705 8abe cd53 1340 53fe 149f

model_1/block_1_expand/Conv2D f4 [48, 1, 1, 8]
0.016120415 -0.1486723 0.06417961 -0.05887513 0.03495382 -0.018141028 -0.06474363 0.019692687
0.093377404 0.08700763 -0.01721667 -0.11305139 0.0073503936 -0.0074890684 -0.09733846 0.14685358
0.021621466 0.004847141 -0.025350692 0.071461685 0.024890732 0.081810184 0.031539094 0.055497378
0.044414066 0.038371474 -0.048915062 0.06772099 -0.055372577 -0.003939936 -0.005963349 0.011869325
-0.027211515 -0.0662282 0.04690635 0.00594958 0.006227307 0.020127675 -0.024013517 -0.087332994
0.009151332 0.0031031286 -0.019760229 0.019559568 0.0003182948 -0.021018699 0.023622397 0.076005906
0.07522695 -0.014436504 -0.1335414 -0.09776048 0.13410074 0.004775769 0.046637807 -0.042442866
0.34767526 0.05345801 0.06659279 -0.06815709 0.08984215 -0.02638051 0.22946422 -0.1756115
0.018394567 -0.09069761 0.0037352652 0.10038809 -0.0025939196 0.026015023 -0.008701916 -0.113780774
0.448943 -0.5145425 0.05323665 0.01127544 -0.031826906 0.046780467 -0.49749154 0.36233282
-0.1506215 -0.045444254 -0.13306089 0.019815475 -0.014541019 0.0041865883 -0.12713853 0.05317462
-0.072818935 -0.14199282 -0.019697282 -0.36354122 -0.4038337 -0.12896602 0.16923013 -0.0605381
0.0029091511 0.0023773487 -0.014352791 0.02196164 -0.027392402 -0.0059768627 0.021586487 0.04291374
-8.1376205e-22 -1.1875322e-20 -1.5763542e-20 -1.8739778e-20 2.1348847e-20 -1.8020162e-20 1.7291028e-20 6.2774147e-21
-0.012399361 -0.05449392 -0.011011815 0.032876834 0.08075935 0.25779107 0.09893316 0.073188804
0.0179387 0.003538659 0.00944933 -0.063548446 0.035462517 0.018979147 -0.025203459 0.035523735
-1.5224715e-21 -1.24700054e-20 -9.934921e-21 -1.6505103e-21 1.5713706e-20 -2.4986747e-20 -1.2491979e-20 -1.4501184e-20
0.15355605 0.31939796 1.6750888 0.25907665 -0.3184249 -0.16906293 0.35938045 0.33922312
0.065832175 -0.09447443 0.018909944 0.027939878 -0.0068007763 0.019305846 -0.086778305 -0.00046880718
-0.105886295 -0.011626088 0.01993635 0.049896978 -0.04006295 -0.049611747 -0.083366595 0.050019544
0.01636296 0.0154462885 -0.0232604 0.06107208 -0.011046004 -0.06903162 -0.0029313057 0.03379754
0.4631951 0.18112637 1.103394 0.059936322 -0.107544 -0.10028833 0.55529064 0.07644191
-0.047872934 -0.01004744 -0.07426888 0.0026687984 0.0046611438 0.0038510307 -0.05656321 0.00094708556
-0.2629148 0.3209429 -0.039324913 -0.0628531 0.028901767 -0.034124997 0.3274571 -0.21192445
0.011284687 -0.108737536 -0.1031049 0.16908374 -0.026983522 -0.11229425 0.2024594 0.24857727
0.014256731 0.051527094 0.037539743 0.034960456 0.14787643 0.14251345 -0.09286556 -0.058373466
-0.35924348 -0.13236594 -0.51927614 -0.013757572 0.036374662 0.050405048 -0.3761563 -0.011498571
0.012257143 -0.0977998 -0.1089202 0.007754682 -0.16008532 0.42059076 0.23151751 0.20304112
0.0005783851 -0.009890962 -0.009264735 0.017768312 0.0181938 0.08105595 0.028253898 0.032488406
0.2717963 0.07294445 0.39664763 0.0111713465 -0.062181916 -0.049549613 0.26910806 -0.02310033
-0.17873882 0.25745362 -0.05337957 -0.05529936 0.017261827 -0.018577289 0.22118182 -0.10508766
-0.009945742 -0.028974265 -0.0040098606 0.0019492753 0.009457387 -0.020184442 0.03554271 0.0337814
00000000: f60e 843c 8d3d 18be 9970 833d 0c27 71bd
00000010: bd2b 0f3d 7e9c 94bc 4f98 84bd 8f52 a13c
00000020: a73c bf3d 0e31 b23d f909 8dbc 7d87 e7bd
00000030: 92db f03b dc66 f5bb 6359 c7bd c960 163e
00000040: 801f b13c c4d4 9e3b 41ac cfbc 815a 923d
00000050: a6e7 cb3c 198c a73d 232f 013d 3851 633d
00000060: 86eb 353d 682b 1d3d 295b 48bd 4db1 8a3d
00000070: 5bce 62bd 941a 81bb 3268 c3bb 8f77 423c
00000080: afea debc a7a2 87bd df20 403d b2f4 c23b
00000090: 700e cc3b cbe2 a43c ffb7 c4bc a4db b2bd
000000a0: 78ef 153c dc5d 4b3b 34e0 a1bc 633b a03c
000000b0: cee0 a639 682f acbc c283 c13c fca8 9b3d
000000c0: 9610 9a3d 1687 6cbc 14bf 08be a636 c8bd
000000d0: b451 093e 0e7e 9c3b 4907 3f3d 92d8 2dbd
000000e0: 7e02 b23e c9f6 5a3d cd61 883d f295 8bbd
000000f0: 29ff b73d f01b d8bc abf8 6a3e 80d3 33be
00000100: 34b0 963c abbf b9bd 5acb 743b 4598 cd3d
00000110: c0fe 29bb 751d d53c 7b92 0ebc e505 e9bd
00000120: dbdb e53e 0fb9 03bf ac0e 5a3d a0bc 383c
00000130: ee5c 02bd e09c 3f3d 36b7 febe b083 b93e
00000140: 863c 1abe c123 3abd 1d41 08be 1054 a23c
00000150: 743d 6ebc a62f 893b 9a30 02be a1cd 593d
00000160: 1822 95bd 9166 11be 325c a1bc 1322 babe
00000170: 4ac3 cebe ab0f 04be aa4a 2d3e ccf6 77bd
00000180: 75a7 3e3b 4bcd 1b3b f827 6bbc e6e8 b33c
00000190: 0866 e0bc 8fd9 c3bb 25d6 b03c 51c6 2f3d
000001a0: caf1 759c 8951 609e e8e1 949e 01fe b09e
000001b0: 58a2 c91e 1432 aa9e 244f a31e 6e27 ed1d
000001c0: b026 4bbc 0435 5fbd e66a 34bc dca9 063d
000001d0: 2865 a53d 31fd 833e 789d ca3d 03e4 953d
000001e0: 2ef4 923c d9e8 673b 5dd1 1a3c b025 82bd
000001f0: 2541 113d 287a 9b3c 7c77 cebc 5681 113d
00000200: c311 e69c 3f8d 6b9e 54aa 3b9e 066b f99c
00000210: 6969 941e 3ffe eb9e 81f7 6b9e b6f5 889e
00000220: cc3d 1d3e 2188 a33e 4f69 d63f b2a5 843e
00000230: 9708 a3be d51e 2dbe b700 b83e a7ae ad3e
00000240: 05d3 863d cf7b c1bd 07e9 9a3c 2ce2 e43c
00000250: 0cd9 debb 4b27 9e3c d3b8 b1bd 3cca f5b9
00000260: eada d8bd 597b 3ebc 8e51 a33c c660 4c3d
00000270: 0c19 24bd b035 4bbd 1bbc aabd 4be1 4c3d
00000280: 9d0b 863c 6e12 7d3c 988c bebc b826 7a3d
00000290: 4cfa 34bc 7360 8dbd 261b 40bb 4a6f 0a3d
000002a0: e827 ed3e 3179 393e 043c 8d3f ca7f 753d
000002b0: 0740 dcbd f863 cdbd 8727 0e3f 938d 9c3d
000002c0: 6916 44bd 059e 24bc 481a 98bd 02e7 2e3b
000002d0: 82bc 983b 9361 7c3b d3ae 67bd d645 783a
000002e0: c59c 86be a152 a43e 2913 21bd 20b9 80bd
000002f0: 66c3 ec3c a7c6 0bbd 75a8 a73e b902 59be
00000300: 68e3 383c c9b1 debd a928 d3bd 4a24 2d3e
00000310: 8c0c ddbc 87fa e5bd 8451 4f3e 0a8b 7e3e
00000320: 1095 693c 130e 533d 46c3 193d b232 0f3d
00000330: eb6c 173e 0cef 113e 4c30 bebd 0419 6fbd
00000340: c3ee b7be f08a 07be 48ef 04bf 7067 61bc
00000350: 99fd 143d 8675 4e3d 8f97 c0be 8164 3cbc
00000360: 2fd2 483c 434b c8bd 8e11 dfbd fd1a fe3b
00000370: 68ed 23be ac57 d73e ed12 6d3e 03ea 4f3e
00000380: c49e 173a b40d 22bc 1dcb 17bc da8e 913c
00000390: 2a0b 953c a900 a63d b874 e73c 9012 053d
000003a0: e228 8b3e e663 953d 6615 cb3e 0608 373c
000003b0: 77b2 7ebd 89f4 4abd 88c8 893e e73c bdbc
000003c0: 4f07 37be f6d0 833e 89a4 5abd 9581 62bd
000003d0: ad68 8d3c 662f 98bc 7d7d 623e 3338 d7bd
000003e0: 77f3 22bc 705b edbc 2665 83bb d37e ff3a
000003f0: 28f3 1a3c d859 a5bc 3c95 113d 5e5e 0a3d

model_1/block_1_project/Conv2D f4 [8, 1, 1, 48]
-0.86409295 -0.22841679 0.60903525 -6.7602196 0.729267 2.1393545 0.637072 0.72721505
0.41563597 0.21171378 0.0743672 -0.16326122 7.325427 9.236834e-22 0.19898255 0.40506563
-3.1431458e-21 -0.5086655 -0.28374255 -0.13486633 5.634123 -0.18017621 0.037111808 0.5028436
2.0828843 2.4161804 0.91525626 0.49808976 0.6321862 0.33358994 0.3691152 -8.798992
0.53096557 0.52320033 0.020908177 0.15160002 -2.1167953 0.33566242 -1.241635 2.3662775
0.5564531 -1.6503175 -0.47751006 0.26341462 0.1521527 -0.06483575 0.27575436 0.08636119
-1.3893105 -0.35641965 -0.12227683 -0.21833687 1.5950744 0.9848517 -0.9424343 2.5984514
0.77038276 0.11902145 -1.0260184 -0.6941083 0.436257 4.592107e-22 0.5602414 1.303162
2.0292143e-22 1.4105828 0.6749508 -1.6435337 0.048228666 0.6881315 4.302364 0.7594076
-0.8813507 -0.16804977 1.8347398 0.03295362 0.7422886 -0.039149754 0.65698797 -0.34936467
0.60583454 -0.30464315 -0.11189962 -0.6247141 0.120634384 -1.7777405 0.22188778 0.24454047
-0.280827 -0.2146134 -2.6176517 -0.26409695 -1.0370989 0.23674433 -1.5426922 -3.2509918
-2.6195102 0.7925071 -0.0095895985 0.4886865 1.7474693 -0.4722098 1.2251947 1.0305066
-0.5171363 2.4243886 0.38863146 -0.41468096 0.10893279 -2.4395053e-21 0.31254274 2.0952919
2.532358e-21 0.41059545 -5.560282 1.02708 -0.059063993 0.4824775 0.32953477 -0.7381252
-1.5012128 0.05544459 1.7181323 0.15364437 0.36903533 1.3033355 0.8567839 0.109197296
0.23976381 -0.21186139 -0.44286627 -0.5511995 0.5129131 0.33014193 0.25809237 0.11693589
1.5202587 -0.29696083 -1.1881579 -0.031175865 1.1268246 -2.3126576 1.0672362 0.58409965
0.090452336 0.20515189 -0.12288317 0.48145324 -0.23301926 1.4602057 0.08595609 -0.5047039
3.460004 1.0997672 0.19504413 -0.05646949 1.2767763 3.0475517e-21 -1.6428202 -0.49620366
1.5235011e-21 -0.29789093 -0.63253534 0.081948094 -0.36508632 0.019279018 0.3346984 -1.1337037
-0.51655596 -0.187592 -0.4302716 -0.12693542 -0.47579628 -0.22861645 -0.25424445 -0.594891
-2.7400088 2.2013073 -2.9500093 -0.40960702 0.46305987 -0.06104998 0.17187266 -7.458552
-0.009393203 0.2579052 -0.10406866 -2.5987957 -0.1425011 -0.339921 -0.12055468 0.5616268
-0.007100892 -0.093943834 3.5242393 1.4928855 0.11052287 -0.90922093 0.05186418 0.0031476626
0.10781957 -0.16706677 -0.25846937 -0.57840806 -3.6671338 -5.5297645e-22 -0.7138592 0.3370373
-1.2890368e-21 0.49425703 0.3028231 0.11042946 3.040685 0.25006822 -0.016980797 -0.067852534
-0.7916258 1.1999493 -0.2830341 2.0441613 -0.38576683 -0.0069009806 -0.055329036 4.2999024
0.2890057 0.3567033 -0.039081685 -0.117422864 0.60293853 -0.44198892 -0.60170984 -0.861615
-0.071088366 -5.646715 0.19323002 -0.04048044 -0.027511902 -0.036038354 0.049665708 -0.09293641
-0.34567058 2.040752 0.24380313 -0.34984156 0.16613911 2.4645064 1.4588059 0.5685176
-0.96295124 1.4879774 0.41421795 2.8464255 1.4444574 -7.094746e-22 -6.690678 -0.035192527
00000000: 3235 5dbf 17e6 69be bce9 1b3f b853 d8c0
00000010: 3eb1 3a3f 2feb 0840 2717 233f c42a 3a3f
00000020: 3dce d43e 7fcb 583e d54d 983d f32d 27be
00000030: e669 ea40 4595 8b1c 15c2 4b3e c364 cf3e
00000040: 487d 6d9d e737 02bf b446 91be 661a 0abe
00000050: bc4a b440 1d80 38be 8d02 183d 5cba 003f
00000060: fa4d 0540 b3a2 1a40 3c4e 6a3f 9f05 ff3e
00000070: f4d6 213f 4dcc aa3e abfc bc3e acc8 0cc1
00000080: 5ced 073f 75f0 053f a047 ab3c 093d 1b3e
00000090: 9379 07c0 f2db ab3e e5ed 9ebf 1771 1740
000000a0: b673 0e3f 9b3d d3bf 337c f4be 48de 863e
000000b0: ebcd 1b3e 9bc8 84bd ad2f 8d3e 23de b03d
000000c0: edd4 b1bf a37c b6be 466c fabd b393 5fbe
000000d0: 662b cc3f 3e1f 7c3f 6043 71bf 074d 2640
000000e0: ce37 453f 85c1 f33d 9254 83bf 15b1 31bf
000000f0: 145d df3e b5c9 0a1c fb6b 0f3f 03ce a63f
00000100: 2451 751b fa8d b43f 93c9 2c3f 505f d2bf
00000110: 6c8b 453d 6329 303f f7ac 8940 8968 423f
00000120: 33a0 61bf 3d15 2cbe c1d8 ea3f 60fa 063d
00000130: a006 3e3f 7e5b 20bd 5d30 283f eddf b2be
00000140: f917 1b3f 30fa 9bbe a12b e5bd 43ed 1fbf
00000150: 290f f73d 008d e3bf 8d36 633e d168 7a3e
00000160: 8ec8 8fbe 9dc3 5bbe 9b87 27c0 b737 87be
00000170: a8bf 84bf 1b6d 723e f076 c5bf 4010 50c0
00000180: 0ea6 27c0 bfe1 4a3f b11d 1dbc 1e35 fa3e
00000190: 13ad df3f 7cc5 f1be 2ed3 9c3f a4e7 833f
000001a0: 0b63 04bf 2f29 1b40 b4fa c63e 1051 d4be
000001b0: 2818 df3d e552 389d 9a05 a03e 4319 0640
000001c0: ed56 3f1d 9139 d23e d5ed b1c0 5c77 833f
000001d0: 16ed 71bd 4a07 f73e c8b8 a83e c6f5 3cbf
000001e0: be27 c0bf de19 633d c2eb db3f f354 1d3e
000001f0: 33f2 bc3e b3d3 a63f 3156 5b3f d5a2 df3d
00000200: a584 753e 31f2 58be 5ebf e2be 691b 0dbf
00000210: 464e 033f 5d08 a93e af24 843e 157c ef3d
00000220: d697 c23f 400b 98be 8f15 98bf 8764 ffbc
00000230: ca3b 903f 9502 14c0 329b 883f 8e87 153f
00000240: 133f b93d 5613 523e 2caa fbbd 0a81 f63e
00000250: 9a9c 6ebe 05e8 ba3f bf09 b03d 4634 01bf
00000260: b570 5d40 2cc5 8c3f a6b9 473e 8d4c 67bd
00000270: 686d a33f 3944 661d ef47 d2bf 680e febe
00000280: 9839 e61c 2985 98be d6ed 21bf 67d4 a73d
00000290: 98ec babe 08ef 9d3c 975d ab3e 341d 91bf
000002a0: 033d 04bf 1e18 40be 8f4c dcbe 5cfb 01be
000002b0: 929b f3be 6e1a 6abe 542c 82be c74a 18bf
000002c0: 4e5c 2fc0 38e2 0c40 f4cc 3cc0 03b8 d1be
000002d0: 2f16 ed3e 8b0f 7abd 63ff 2f3e 75ac eec0
000002e0: f3e5 19bc 260c 843e f321 d5bd ab52 26c0
000002f0: cfeb 11be 200a aebe 5fe5 f6bd c6c6 0f3f
00000300: 99ae e8bb a065 c0bd 238d 6140 df16 bf3f
00000310: d159 e23d b4c2 68bf 896f 543d 0449 4e3b
00000320: 82d0 dc3d 8d13 2bbe 1956 84be 8d12 14bf
00000330: 52b2 6ac0 7b20 279c 7abf 36bf 2790 ac3e
00000340: 32cb c29c 420f fd3e a10b 9b3e d728 e23d
00000350: 959a 4240 f108 803e 501b 8bbc 45f6 8abd
00000360: fda7 4abf f097 993f d8e9 90be 8ad3 0240
00000370: 3b83 c5be 9f21 e2bb b3a0 62bd cd98 8940
00000380: 8ef8 933e d1a1 b63e 1e14 20bd 667b f0bd
00000390: 2e5a 1a3f 5f4c e2be a809 1abf cd92 5cbf
000003a0: c796 91bd e4b1 b4c0 17de 453e d1ce 25bd
000003b0: a460 e1bc f49c 13bd 456e 4b3d 7255 bebd
000003c0: bcfb b0be ae9b 0240 87a7 793e 6f1e b3be
000003d0: 5f20 2a3e 79ba 1d40 27ba ba3f 5f8a 113f
000003e0: f983 76bf 0b76 be3f 6014 d43e d62b 3640
000003f0: fbe3 b83f f06c 569c 091a d6c0 0a26 10bd

model_1/block_2_expand/Conv2D f4 [48, 1, 1, 8]
0.016477274 0.008184001 -0.0012522802 -0.0025352878 0.029336631 0.005367503 -0.01173948 -0.0063678157
-0.0034219646 0.00075953227 0.003539903 0.09351634 0.0047249054 -0.008436812 0.0010772385 0.012998945
0.020712843 -0.08501293 -0.015351654 0.029612156 -0.0011868181 -0.04681294 0.056255154 0.0094377175
0.14829783 -0.040482022 -0.010772257 0.015565681 -0.0020552115 -0.044560738 0.028917432 0.008460099
0.025125584 -0.13415194 0.39320594 -0.057415158 -0.03301598 -0.17690164 0.019254467 -0.3516274
0.10727487 -0.00993798 -0.0076480806 -0.0025661695 0.17537434 0.030993484 -0.00940483 0.0120348185
-0.030463962 0.2601527 -0.04585189 0.35632354 0.05930215 0.12714174 -0.23232968 -0.15128608
-0.011299772 0.34232083 -0.0068310997 3.2592656e-05 6.4034815e-05 -0.046647735 0.053659324 0.0050493875
0.18056381 0.0700125 0.000324391 0.0009989152 -0.06657763 -0.045724105 0.0013446441 -0.029631106
-0.18605915 0.0077366238 -0.005592758 0.02322139 0.06764217 0.017859694 -0.0107748285 -0.0030608776
-0.12851152 -0.02254051 0.024897084 0.20302896 0.06528889 0.042135004 -0.0048742886 -0.00093741226
-0.14868948 -0.0074746837 0.006013402 -0.07447022 0.02909253 0.010280814 -0.03321936 -0.059026595
0.13854389 0.03604391 0.008164279 0.041318733 -0.06302915 -0.022495722 -0.0022818262 -0.058671616
-0.007767085 0.07378652 -0.13289718 -0.0033973104 0.009204612 0.13123673 -0.09119212 0.09493855
-0.086290814 -0.043129314 -0.005095212 0.16985893 0.046830274 0.015141753 -0.0026930808 -0.036549978
-0.007021239 0.5485541 -0.00071271573 -0.022609912 -0.014666856 -0.056765735 0.046771828 -0.20965657
-0.008115496 -0.120288365 -0.014042908 0.006876192 -0.010746207 -0.098539546 0.11177093 -0.037784893
0.020489627 0.124282025 -0.0016766186 -0.012920552 0.00033020717 0.07792132 -0.08321149 -0.021764817
-0.03042949 0.16535218 -0.52654 -0.004649082 0.04803087 0.24492511 -0.12574705 0.3012127
-0.024534654 0.0030058527 -0.0007925383 -4.5427976e-05 -0.04793563 0.003019599 0.010801279 0.010485703
-0.075204656 -0.009051647 -0.004111313 -0.0009949954 0.050357472 -0.019992564 0.02031645 -0.0073844367
-0.08742545 -0.011319949 -0.0005231319 -0.006445952 -0.14329289 -0.0067219404 0.0076284213 -6.726925e-05
-0.12688282 -0.028712695 -0.0010570305 -0.0074671395 0.09112395 -0.009353966 0.03156813 0.04719997
-0.06327836 -0.057033703 -0.011149466 -0.028971303 0.004425732 0.23234649 -0.36109114 -0.25996396
-0.009422742 0.028680652 -0.09616839 -0.0014700745 0.010293039 0.03744851 -0.01158698 0.062555745
0.047028355 -0.01762919 0.0029964 0.06543853 -0.04080037 -0.008775387 5.342275e-05 -0.018768627
0.0004239838 -0.008284036 -0.0013266617 -2.0928737e-05 -0.0027203024 0.041095156 0.04579646 -0.010612185
0.06482995 -0.0039443024 -0.0052876966 -0.0019311158 0.14608361 0.033017736 0.038238186 -0.033604145
-0.0022493228 0.19989946 -0.12041635 -0.011562767 0.0047954493 0.106181994 -0.036096137 0.18724234
-0.02152717 0.035396893 -0.019890785 -0.020395555 -0.011263789 0.24907605 -0.37387514 -0.25317717
0.0058703143 -0.0022969395 0.00023747627 -0.16307573 -0.0033963518 0.00062335364 -0.0011460854 -0.014956215
-0.09115359 0.0037288626 0.008031104 0.005010291 -0.14982726 0.0040727723 0.002097258 0.005752685
00000000: 59fb 863c 3016 063c 8d23 a4ba 1227 26bb
00000010: 6053 f03c e1e1 af3b f356 40bc 1ca9 d0bb
00000020: 0a43 60bb 591b 473a b8fd 673b 7f85 bf3d
00000030: 61d3 9a3b 8e3a 0abc 2032 8d3a 87f9 543c
00000040: fbad a93c 421b aebd 8185 7bbc 3195 f23c
00000050: 028f 9bba edbe 3fbd ce6b 663d a8a0 1a3c
00000060: 63db 173e 7ad0 25bd 1f7e 30bc 3307 7f3c
00000070: bab0 06bb 5285 36bd 40e4 ec3c 3a9c 0a3c
00000080: 2bd4 cd3c 205f 09be 4a52 c93e 282c 6bbd
00000090: c43b 07bd b425 35be 8bbb 9d3c 8208 b4be
000000a0: edb2 db3d e9d2 22bc c09c fabb 2e2d 28bb
000000b0: 5595 333e 0ce6 fd3c b716 1abc b02d 453c
000000c0: 8f8f f9bc bc32 853e 31cf 3bbd 0a70 b63e
000000d0: d0e6 723d 7231 023e d5e7 6dbe bdea 1abe
000000e0: ae22 39bc ad44 af3e 6bd7 dfbb 19b4 0838
000000f0: 6e4a 8638 b211 3fbd e1c9 5b3d 5575 a53b
00000100: b8e5 383e b762 8f3d 0613 aa39 08ee 823a
00000110: da59 88bd 3349 3bbd c53e b03a efbc f2bc
00000120: 4a86 3ebe 8183 fd3b 7443 b7bb c93a be3c
00000130: fa87 8a3d 7e4e 923c e888 30bc 0199 48bb
00000140: 8698 03be e0a6 b8bc f8f4 cb3c d3e6 4f3e
00000150: 2eb6 853d c195 2c3d 7fb8 9fbb acbc 75ba
00000160: 0e42 18be 31ee f4bb 120c c53b d883 98bd
00000170: 7553 ee3c dc70 283c 0611 08bd dfc5 71bd
00000180: 73de 0d3e c7a2 133d 78c3 053c d53d 293d
00000190: 6d15 81bd f348 b8bc b18a 15bb a651 70bd
000001a0: 0883 febb 631d 973d 3316 08be 69a5 5ebb
000001b0: f1ce 163c ec62 063e efc2 babd 246f c23d
000001c0: 3db9 b0bd 5da8 30bd bcf5 a6bb 80ef 2d3e
000001d0: 1ad1 3f3d 1d15 783c 667e 30bb 6eb5 15bd
000001e0: 6c12 e6bb 0b6e 0c3f 8bd5 3aba 6c38 b9bc
000001f0: 414d 70bc 3083 68bd d193 3f3d 36b0 56be
00000200: dbf6 04bc bf59 f6bd 3a14 66bc ae51 e13b
00000210: dc10 30bc 1acf c9bd 28e8 e43d 55c4 1abd
00000220: ddd9 a73c 9387 fe3d fcc1 dbba b9b0 53bc
00000230: a81f ad39 3795 9f3d c96a aabd 214c b2bc
00000240: 4447 f9bc 1552 293e 53cb 06bf 5457 98bb
00000250: 04bc 443d a6cd 7a3e d6c3 00be 8d38 9a3e
00000260: e6fc c8bc d7fd 443b 58c2 4fba eb89 3eb8
00000270: 2758 44bd 77e4 453b d9f7 303c 3acc 2b3c
00000280: e604 9abd 5c4d 14bc 31b8 86bb 816a 82ba
00000290: a343 4e3d 72c7 a3bc af6e a63c 25f9 f1bb
000002a0: 1d0c b3bd 4f77 39bc ca22 09ba 9138 d3bb
000002b0: 5fbb 12be b943 dcbb d6f7 f93b e712 8db8
000002c0: 92ed 01be e336 ebbc 0f8c 8aba e8ae f4bb
000002d0: 329f ba3d 6141 19bc 954d 013d c154 413d
000002e0: 1698 81bd 2c9c 69bd 40ac 36bc 3a55 edbc
000002f0: bb05 913b 3dec 6d3e f0e0 b8be ff19 85be
00000300: d861 1abc b0f3 ea3c eff3 c4bd 84af c0ba
00000310: 22a4 283c 9c63 193d 51d7 3dbc 3a1d 803d
00000320: cea0 403d 176b 90bc 405f 443b a304 863d
00000330: 4a1e 27bd a4c6 0fbc 3e12 6038 aac0 99bc
00000340: 244a de39 c4b9 07bc 61e3 adba 1f90 afb7
00000350: 1a47 32bb 6553 283d 1295 3b3d bbde 2dbc
00000360: 91c5 843d 353f 81bb 6a44 adbb 7e1d fdba
00000370: f196 153e 9b3d 073d a59f 1c3d 80a4 09bd
00000380: 6069 13bb 72b2 4c3e d99c f6bd c371 3dbc
00000390: 2523 9d3b f275 d93d 8bd9 13bd 75bc 3f3e
000003a0: bf59 b0bc 55fc 103d 00f2 a2bc 9414 a7bc
000003b0: c18b 38bc cb0d 7f3e 906c bfbe 70a0 81be
000003c0: c45b c03b 4088 16bb 0d03 7939 53fd 26be
000003d0: 5495 5ebb 8e68 233a 3f38 96ba ea0a 75bc
000003e0: bcae babd ef5f 743b e494 033c 5e2d a43b
000003f0: 516c 19be e474 853b 2772 093b 0581 bc3b
